I1124 19:02:39.656847    21 caffe.cpp:312] Use CPU.
I1124 19:02:39.720407    21 net.cpp:49] Initializing net from parameters: 
name: "AlexNet"
state {
  phase: TRAIN
}
layer {
  name: "data"
  type: "Input"
  top: "data"
  input_param {
    shape {
      dim: 10
      dim: 3
      dim: 227
      dim: 227
    }
  }
}
layer {
  name: "conv1"
  type: "Convolution"
  bottom: "data"
  top: "conv1"
  param {
    lr_mult: 1
    decay_mult: 1
  }
  param {
    lr_mult: 2
    decay_mult: 0
  }
  convolution_param {
    num_output: 96
    kernel_size: 11
    stride: 4
  }
}
layer {
  name: "relu1"
  type: "ReLU"
  bottom: "conv1"
  top: "conv1"
}
layer {
  name: "norm1"
  type: "LRN"
  bottom: "conv1"
  top: "norm1"
  lrn_param {
    local_size: 5
    alpha: 0.0001
    beta: 0.75
  }
}
layer {
  name: "pool1"
  type: "Pooling"
  bottom: "norm1"
  top: "pool1"
  pooling_param {
    pool: MAX
    kernel_size: 3
    stride: 2
  }
}
layer {
  name: "conv2"
  type: "Convolution"
  bottom: "pool1"
  top: "conv2"
  param {
    lr_mult: 1
    decay_mult: 1
  }
  param {
    lr_mult: 2
    decay_mult: 0
  }
  convolution_param {
    num_output: 256
    pad: 2
    kernel_size: 5
    group: 2
  }
}
layer {
  name: "relu2"
  type: "ReLU"
  bottom: "conv2"
  top: "conv2"
}
layer {
  name: "norm2"
  type: "LRN"
  bottom: "conv2"
  top: "norm2"
  lrn_param {
    local_size: 5
    alpha: 0.0001
    beta: 0.75
  }
}
layer {
  name: "pool2"
  type: "Pooling"
  bottom: "norm2"
  top: "pool2"
  pooling_param {
    pool: MAX
    kernel_size: 3
    stride: 2
  }
}
layer {
  name: "conv3"
  type: "Convolution"
  bottom: "pool2"
  top: "conv3"
  param {
    lr_mult: 1
    decay_mult: 1
  }
  param {
    lr_mult: 2
    decay_mult: 0
  }
  convolution_param {
    num_output: 384
    pad: 1
    kernel_size: 3
  }
}
layer {
  name: "relu3"
  type: "ReLU"
  bottom: "conv3"
  top: "conv3"
}
layer {
  name: "conv4"
  type: "Convolution"
  bottom: "conv3"
  top: "conv4"
  param {
    lr_mult: 1
    decay_mult: 1
  }
  param {
    lr_mult: 2
    decay_mult: 0
  }
  convolution_param {
    num_output: 384
    pad: 1
    kernel_size: 3
    group: 2
  }
}
layer {
  name: "relu4"
  type: "ReLU"
  bottom: "conv4"
  top: "conv4"
}
layer {
  name: "conv5"
  type: "Convolution"
  bottom: "conv4"
  top: "conv5"
  param {
    lr_mult: 1
    decay_mult: 1
  }
  param {
    lr_mult: 2
    decay_mult: 0
  }
  convolution_param {
    num_output: 256
    pad: 1
    kernel_size: 3
    group: 2
  }
}
layer {
  name: "relu5"
  type: "ReLU"
  bottom: "conv5"
  top: "conv5"
}
layer {
  name: "pool5"
  type: "Pooling"
  bottom: "conv5"
  top: "pool5"
  pooling_param {
    pool: MAX
    kernel_size: 3
    stride: 2
  }
}
layer {
  name: "fc6"
  type: "InnerProduct"
  bottom: "pool5"
  top: "fc6"
  param {
    lr_mult: 1
    decay_mult: 1
  }
  param {
    lr_mult: 2
    decay_mult: 0
  }
  inner_product_param {
    num_output: 4096
  }
}
layer {
  name: "relu6"
  type: "ReLU"
  bottom: "fc6"
  top: "fc6"
}
layer {
  name: "drop6"
  type: "Dropout"
  bottom: "fc6"
  top: "fc6"
  dropout_param {
    dropout_ratio: 0.5
  }
}
layer {
  name: "fc7"
  type: "InnerProduct"
  bottom: "fc6"
  top: "fc7"
  param {
    lr_mult: 1
    decay_mult: 1
  }
  param {
    lr_mult: 2
    decay_mult: 0
  }
  inner_product_param {
    num_output: 4096
  }
}
layer {
  name: "relu7"
  type: "ReLU"
  bottom: "fc7"
  top: "fc7"
}
layer {
  name: "drop7"
  type: "Dropout"
  bottom: "fc7"
  top: "fc7"
  dropout_param {
    dropout_ratio: 0.5
  }
}
layer {
  name: "fc8"
  type: "InnerProduct"
  bottom: "fc7"
  top: "fc8"
  param {
    lr_mult: 1
    decay_mult: 1
  }
  param {
    lr_mult: 2
    decay_mult: 0
  }
  inner_product_param {
    num_output: 1000
  }
}
layer {
  name: "prob"
  type: "Softmax"
  bottom: "fc8"
  top: "prob"
}
I1124 19:17:04.079293    16 layer_factory.hpp:77] Creating layer data
I1124 19:17:04.095154    16 net.cpp:91] Creating Layer data
I1124 19:17:04.095234    16 net.cpp:399] data -> data
I1124 19:17:04.099175    16 net.cpp:141] Setting up data
I1124 19:17:04.099225    16 net.cpp:148] Top shape: 10 3 227 227 (1545870)
I1124 19:17:04.099280    16 net.cpp:156] Memory required for data: 6183480
I1124 19:17:04.099344    16 layer_factory.hpp:77] Creating layer conv1
I1124 19:17:04.099390    16 net.cpp:91] Creating Layer conv1
I1124 19:17:04.099411    16 net.cpp:425] conv1 <- data
I1124 19:17:04.099432    16 net.cpp:399] conv1 -> conv1
I1124 19:17:04.100563    16 net.cpp:141] Setting up conv1
I1124 19:17:04.100597    16 net.cpp:148] Top shape: 10 96 55 55 (2904000)
I1124 19:17:04.100620    16 net.cpp:156] Memory required for data: 17799480
I1124 19:17:04.100699    16 layer_factory.hpp:77] Creating layer relu1
I1124 19:17:04.100749    16 net.cpp:91] Creating Layer relu1
I1124 19:17:04.100780    16 net.cpp:425] relu1 <- conv1
I1124 19:17:04.100831    16 net.cpp:386] relu1 -> conv1 (in-place)
I1124 19:17:04.100880    16 net.cpp:141] Setting up relu1
I1124 19:17:04.100931    16 net.cpp:148] Top shape: 10 96 55 55 (2904000)
I1124 19:17:04.100960    16 net.cpp:156] Memory required for data: 29415480
I1124 19:17:04.100983    16 layer_factory.hpp:77] Creating layer norm1
I1124 19:17:04.101009    16 net.cpp:91] Creating Layer norm1
I1124 19:17:04.101032    16 net.cpp:425] norm1 <- conv1
I1124 19:17:04.101053    16 net.cpp:399] norm1 -> norm1
I1124 19:17:04.101092    16 net.cpp:141] Setting up norm1
I1124 19:17:04.101119    16 net.cpp:148] Top shape: 10 96 55 55 (2904000)
I1124 19:17:04.101140    16 net.cpp:156] Memory required for data: 41031480
I1124 19:17:04.101160    16 layer_factory.hpp:77] Creating layer pool1
I1124 19:17:04.101186    16 net.cpp:91] Creating Layer pool1
I1124 19:17:04.101207    16 net.cpp:425] pool1 <- norm1
I1124 19:17:04.101232    16 net.cpp:399] pool1 -> pool1
I1124 19:17:04.101281    16 net.cpp:141] Setting up pool1
I1124 19:17:04.101305    16 net.cpp:148] Top shape: 10 96 27 27 (699840)
I1124 19:17:04.101321    16 net.cpp:156] Memory required for data: 43830840
I1124 19:17:04.101342    16 layer_factory.hpp:77] Creating layer conv2
I1124 19:17:04.101368    16 net.cpp:91] Creating Layer conv2
I1124 19:17:04.101392    16 net.cpp:425] conv2 <- pool1
I1124 19:17:04.101413    16 net.cpp:399] conv2 -> conv2
I1124 19:17:04.101876    16 net.cpp:141] Setting up conv2
I1124 19:17:04.101900    16 net.cpp:148] Top shape: 10 256 27 27 (1866240)
I1124 19:17:04.101912    16 net.cpp:156] Memory required for data: 51295800
I1124 19:17:04.101933    16 layer_factory.hpp:77] Creating layer relu2
I1124 19:17:04.101948    16 net.cpp:91] Creating Layer relu2
I1124 19:17:04.101958    16 net.cpp:425] relu2 <- conv2
I1124 19:17:04.101970    16 net.cpp:386] relu2 -> conv2 (in-place)
I1124 19:17:04.101985    16 net.cpp:141] Setting up relu2
I1124 19:17:04.101999    16 net.cpp:148] Top shape: 10 256 27 27 (1866240)
I1124 19:17:04.102010    16 net.cpp:156] Memory required for data: 58760760
I1124 19:17:04.102018    16 layer_factory.hpp:77] Creating layer norm2
I1124 19:17:04.102031    16 net.cpp:91] Creating Layer norm2
I1124 19:17:04.102041    16 net.cpp:425] norm2 <- conv2
I1124 19:17:04.102053    16 net.cpp:399] norm2 -> norm2
I1124 19:17:04.102071    16 net.cpp:141] Setting up norm2
I1124 19:17:04.102092    16 net.cpp:148] Top shape: 10 256 27 27 (1866240)
I1124 19:17:04.102110    16 net.cpp:156] Memory required for data: 66225720
I1124 19:17:04.102129    16 layer_factory.hpp:77] Creating layer pool2
I1124 19:17:04.102155    16 net.cpp:91] Creating Layer pool2
I1124 19:17:04.102174    16 net.cpp:425] pool2 <- norm2
I1124 19:17:04.102198    16 net.cpp:399] pool2 -> pool2
I1124 19:17:04.102231    16 net.cpp:141] Setting up pool2
I1124 19:17:04.102257    16 net.cpp:148] Top shape: 10 256 13 13 (432640)
I1124 19:17:04.102277    16 net.cpp:156] Memory required for data: 67956280
I1124 19:17:04.102296    16 layer_factory.hpp:77] Creating layer conv3
I1124 19:17:04.102324    16 net.cpp:91] Creating Layer conv3
I1124 19:17:04.102346    16 net.cpp:425] conv3 <- pool2
I1124 19:17:04.102370    16 net.cpp:399] conv3 -> conv3
I1124 19:17:04.103675    16 net.cpp:141] Setting up conv3
I1124 19:17:04.103734    16 net.cpp:148] Top shape: 10 384 13 13 (648960)
I1124 19:17:04.103744    16 net.cpp:156] Memory required for data: 70552120
I1124 19:17:04.103834    16 layer_factory.hpp:77] Creating layer relu3
I1124 19:17:04.103857    16 net.cpp:91] Creating Layer relu3
I1124 19:17:04.103869    16 net.cpp:425] relu3 <- conv3
I1124 19:17:04.103883    16 net.cpp:386] relu3 -> conv3 (in-place)
I1124 19:17:04.103904    16 net.cpp:141] Setting up relu3
I1124 19:17:04.103914    16 net.cpp:148] Top shape: 10 384 13 13 (648960)
I1124 19:17:04.103924    16 net.cpp:156] Memory required for data: 73147960
I1124 19:17:04.103937    16 layer_factory.hpp:77] Creating layer conv4
I1124 19:17:04.103966    16 net.cpp:91] Creating Layer conv4
I1124 19:17:04.103983    16 net.cpp:425] conv4 <- conv3
I1124 19:17:04.103998    16 net.cpp:399] conv4 -> conv4
I1124 19:17:04.105197    16 net.cpp:141] Setting up conv4
I1124 19:17:04.105229    16 net.cpp:148] Top shape: 10 384 13 13 (648960)
I1124 19:17:04.105239    16 net.cpp:156] Memory required for data: 75743800
I1124 19:17:04.105262    16 layer_factory.hpp:77] Creating layer relu4
I1124 19:17:04.105283    16 net.cpp:91] Creating Layer relu4
I1124 19:17:04.105304    16 net.cpp:425] relu4 <- conv4
I1124 19:17:04.105327    16 net.cpp:386] relu4 -> conv4 (in-place)
I1124 19:17:04.105351    16 net.cpp:141] Setting up relu4
I1124 19:17:04.105373    16 net.cpp:148] Top shape: 10 384 13 13 (648960)
I1124 19:17:04.105391    16 net.cpp:156] Memory required for data: 78339640
I1124 19:17:04.105410    16 layer_factory.hpp:77] Creating layer conv5
I1124 19:17:04.105438    16 net.cpp:91] Creating Layer conv5
I1124 19:17:04.105459    16 net.cpp:425] conv5 <- conv4
I1124 19:17:04.105481    16 net.cpp:399] conv5 -> conv5
I1124 19:17:04.106241    16 net.cpp:141] Setting up conv5
I1124 19:17:04.106267    16 net.cpp:148] Top shape: 10 256 13 13 (432640)
I1124 19:17:04.106278    16 net.cpp:156] Memory required for data: 80070200
I1124 19:17:04.106303    16 layer_factory.hpp:77] Creating layer relu5
I1124 19:17:04.106323    16 net.cpp:91] Creating Layer relu5
I1124 19:17:04.106333    16 net.cpp:425] relu5 <- conv5
I1124 19:17:04.106345    16 net.cpp:386] relu5 -> conv5 (in-place)
I1124 19:17:04.106360    16 net.cpp:141] Setting up relu5
I1124 19:17:04.106374    16 net.cpp:148] Top shape: 10 256 13 13 (432640)
I1124 19:17:04.106382    16 net.cpp:156] Memory required for data: 81800760
I1124 19:17:04.106392    16 layer_factory.hpp:77] Creating layer pool5
I1124 19:17:04.106406    16 net.cpp:91] Creating Layer pool5
I1124 19:17:04.106416    16 net.cpp:425] pool5 <- conv5
I1124 19:17:04.106429    16 net.cpp:399] pool5 -> pool5
I1124 19:17:04.106456    16 net.cpp:141] Setting up pool5
I1124 19:17:04.106478    16 net.cpp:148] Top shape: 10 256 6 6 (92160)
I1124 19:17:04.106498    16 net.cpp:156] Memory required for data: 82169400
I1124 19:17:04.106515    16 layer_factory.hpp:77] Creating layer fc6
I1124 19:17:04.107203    16 net.cpp:91] Creating Layer fc6
I1124 19:17:04.107226    16 net.cpp:425] fc6 <- pool5
I1124 19:17:04.107249    16 net.cpp:399] fc6 -> fc6
I1124 19:17:04.188374    16 net.cpp:141] Setting up fc6
I1124 19:17:04.188465    16 net.cpp:148] Top shape: 10 4096 (40960)
I1124 19:17:04.188477    16 net.cpp:156] Memory required for data: 82333240
I1124 19:17:04.188501    16 layer_factory.hpp:77] Creating layer relu6
I1124 19:17:04.188522    16 net.cpp:91] Creating Layer relu6
I1124 19:17:04.188534    16 net.cpp:425] relu6 <- fc6
I1124 19:17:04.188551    16 net.cpp:386] relu6 -> fc6 (in-place)
I1124 19:17:04.188572    16 net.cpp:141] Setting up relu6
I1124 19:17:04.188587    16 net.cpp:148] Top shape: 10 4096 (40960)
I1124 19:17:04.188603    16 net.cpp:156] Memory required for data: 82497080
I1124 19:17:04.188619    16 layer_factory.hpp:77] Creating layer drop6
I1124 19:17:04.188642    16 net.cpp:91] Creating Layer drop6
I1124 19:17:04.188652    16 net.cpp:425] drop6 <- fc6
I1124 19:17:04.188668    16 net.cpp:386] drop6 -> fc6 (in-place)
I1124 19:17:04.188765    16 net.cpp:141] Setting up drop6
I1124 19:17:04.188786    16 net.cpp:148] Top shape: 10 4096 (40960)
I1124 19:17:04.188801    16 net.cpp:156] Memory required for data: 82660920
I1124 19:17:04.188859    16 layer_factory.hpp:77] Creating layer fc7
I1124 19:17:04.188889    16 net.cpp:91] Creating Layer fc7
I1124 19:17:04.188911    16 net.cpp:425] fc7 <- fc6
I1124 19:17:04.188935    16 net.cpp:399] fc7 -> fc7
I1124 19:17:04.226091    16 net.cpp:141] Setting up fc7
I1124 19:17:04.226161    16 net.cpp:148] Top shape: 10 4096 (40960)
I1124 19:17:04.226171    16 net.cpp:156] Memory required for data: 82824760
I1124 19:17:04.226193    16 layer_factory.hpp:77] Creating layer relu7
I1124 19:17:04.226218    16 net.cpp:91] Creating Layer relu7
I1124 19:17:04.226229    16 net.cpp:425] relu7 <- fc7
I1124 19:17:04.226243    16 net.cpp:386] relu7 -> fc7 (in-place)
I1124 19:17:04.226264    16 net.cpp:141] Setting up relu7
I1124 19:17:04.226276    16 net.cpp:148] Top shape: 10 4096 (40960)
I1124 19:17:04.226289    16 net.cpp:156] Memory required for data: 82988600
I1124 19:17:04.226303    16 layer_factory.hpp:77] Creating layer drop7
I1124 19:17:04.226323    16 net.cpp:91] Creating Layer drop7
I1124 19:17:04.226335    16 net.cpp:425] drop7 <- fc7
I1124 19:17:04.226351    16 net.cpp:386] drop7 -> fc7 (in-place)
I1124 19:17:04.226369    16 net.cpp:141] Setting up drop7
I1124 19:17:04.226385    16 net.cpp:148] Top shape: 10 4096 (40960)
I1124 19:17:04.226395    16 net.cpp:156] Memory required for data: 83152440
I1124 19:17:04.226404    16 layer_factory.hpp:77] Creating layer fc8
I1124 19:17:04.226419    16 net.cpp:91] Creating Layer fc8
I1124 19:17:04.226428    16 net.cpp:425] fc8 <- fc7
I1124 19:17:04.226438    16 net.cpp:399] fc8 -> fc8
I1124 19:17:04.235663    16 net.cpp:141] Setting up fc8
I1124 19:17:04.235728    16 net.cpp:148] Top shape: 10 1000 (10000)
I1124 19:17:04.235738    16 net.cpp:156] Memory required for data: 83192440
I1124 19:17:04.235757    16 layer_factory.hpp:77] Creating layer prob
I1124 19:17:04.235781    16 net.cpp:91] Creating Layer prob
I1124 19:17:04.235801    16 net.cpp:425] prob <- fc8
I1124 19:17:04.235821    16 net.cpp:399] prob -> prob
I1124 19:17:04.235863    16 net.cpp:141] Setting up prob
I1124 19:17:04.235882    16 net.cpp:148] Top shape: 10 1000 (10000)
I1124 19:17:04.235891    16 net.cpp:156] Memory required for data: 83232440
I1124 19:17:04.235901    16 net.cpp:219] prob does not need backward computation.
I1124 19:17:04.235911    16 net.cpp:219] fc8 does not need backward computation.
I1124 19:17:04.235920    16 net.cpp:219] drop7 does not need backward computation.
I1124 19:17:04.235930    16 net.cpp:219] relu7 does not need backward computation.
…
