I1124 19:30:29.967839    20 caffe.cpp:312] Use CPU.
I1124 19:30:30.001569    20 net.cpp:49] Initializing net from parameters: 
name: "CaffeNet"
state {
  phase: TRAIN
}
layer {
  name: "data"
  type: "Input"
  top: "data"
  input_param {
    shape {
      dim: 10
      dim: 3
      dim: 227
      dim: 227
    }
  }
}
layer {
  name: "conv1"
  type: "Convolution"
  bottom: "data"
  top: "conv1"
  convolution_param {
    num_output: 96
    kernel_size: 11
    stride: 4
  }
}
layer {
  name: "relu1"
  type: "ReLU"
  bottom: "conv1"
  top: "conv1"
}
layer {
  name: "pool1"
  type: "Pooling"
  bottom: "conv1"
  top: "pool1"
  pooling_param {
    pool: MAX
    kernel_size: 3
    stride: 2
  }
}
layer {
  name: "norm1"
  type: "LRN"
  bottom: "pool1"
  top: "norm1"
  lrn_param {
    local_size: 5
    alpha: 0.0001
    beta: 0.75
  }
}
layer {
  name: "conv2"
  type: "Convolution"
  bottom: "norm1"
  top: "conv2"
  convolution_param {
    num_output: 256
    pad: 2
    kernel_size: 5
    group: 2
  }
}
layer {
  name: "relu2"
  type: "ReLU"
  bottom: "conv2"
  top: "conv2"
}
layer {
  name: "pool2"
  type: "Pooling"
  bottom: "conv2"
  top: "pool2"
  pooling_param {
    pool: MAX
    kernel_size: 3
    stride: 2
  }
}
layer {
  name: "norm2"
  type: "LRN"
  bottom: "pool2"
  top: "norm2"
  lrn_param {
    local_size: 5
    alpha: 0.0001
    beta: 0.75
  }
}
layer {
  name: "conv3"
  type: "Convolution"
  bottom: "norm2"
  top: "conv3"
  convolution_param {
    num_output: 384
    pad: 1
    kernel_size: 3
  }
}
layer {
  name: "relu3"
  type: "ReLU"
  bottom: "conv3"
  top: "conv3"
}
layer {
  name: "conv4"
  type: "Convolution"
  bottom: "conv3"
  top: "conv4"
  convolution_param {
    num_output: 384
    pad: 1
    kernel_size: 3
    group: 2
  }
}
layer {
  name: "relu4"
  type: "ReLU"
  bottom: "conv4"
  top: "conv4"
}
layer {
  name: "conv5"
  type: "Convolution"
  bottom: "conv4"
  top: "conv5"
  convolution_param {
    num_output: 256
    pad: 1
    kernel_size: 3
    group: 2
  }
}
layer {
  name: "relu5"
  type: "ReLU"
  bottom: "conv5"
  top: "conv5"
}
layer {
  name: "pool5"
  type: "Pooling"
  bottom: "conv5"
  top: "pool5"
  pooling_param {
    pool: MAX
    kernel_size: 3
    stride: 2
  }
}
layer {
  name: "fc6"
  type: "InnerProduct"
  bottom: "pool5"
  top: "fc6"
  inner_product_param {
    num_output: 4096
  }
}
layer {
  name: "relu6"
  type: "ReLU"
  bottom: "fc6"
  top: "fc6"
}
layer {
  name: "drop6"
  type: "Dropout"
  bottom: "fc6"
  top: "fc6"
  dropout_param {
    dropout_ratio: 0.5
  }
}
layer {
  name: "fc7"
  type: "InnerProduct"
  bottom: "fc6"
  top: "fc7"
  inner_product_param {
    num_output: 4096
  }
}
layer {
  name: "relu7"
  type: "ReLU"
  bottom: "fc7"
  top: "fc7"
}
layer {
  name: "drop7"
  type: "Dropout"
  bottom: "fc7"
  top: "fc7"
  dropout_param {
    dropout_ratio: 0.5
  }
}
layer {
  name: "fc8"
  type: "InnerProduct"
  bottom: "fc7"
  top: "fc8"
  inner_product_param {
    num_output: 1000
  }
}
layer {
  name: "prob"
  type: "Softmax"
  bottom: "fc8"
  top: "prob"
}
I1124 19:30:30.006237    20 layer_factory.hpp:77] Creating layer data
I1124 19:30:30.006358    20 net.cpp:91] Creating Layer data
I1124 19:30:30.006469    20 net.cpp:399] data -> data
I1124 19:30:30.006615    20 net.cpp:141] Setting up data
I1124 19:30:30.006671    20 net.cpp:148] Top shape: 10 3 227 227 (1545870)
I1124 19:30:30.006820    20 net.cpp:156] Memory required for data: 6183480
I1124 19:30:30.006850    20 layer_factory.hpp:77] Creating layer conv1
I1124 19:30:30.006932    20 net.cpp:91] Creating Layer conv1
I1124 19:30:30.007002    20 net.cpp:425] conv1 <- data
I1124 19:30:30.007025    20 net.cpp:399] conv1 -> conv1
I1124 19:30:30.007372    20 net.cpp:141] Setting up conv1
I1124 19:30:30.007410    20 net.cpp:148] Top shape: 10 96 55 55 (2904000)
I1124 19:30:30.007426    20 net.cpp:156] Memory required for data: 17799480
I1124 19:30:30.007547    20 layer_factory.hpp:77] Creating layer relu1
I1124 19:30:30.007614    20 net.cpp:91] Creating Layer relu1
I1124 19:30:30.007763    20 net.cpp:425] relu1 <- conv1
I1124 19:30:30.007786    20 net.cpp:386] relu1 -> conv1 (in-place)
I1124 19:30:30.007858    20 net.cpp:141] Setting up relu1
I1124 19:30:30.007880    20 net.cpp:148] Top shape: 10 96 55 55 (2904000)
I1124 19:30:30.007910    20 net.cpp:156] Memory required for data: 29415480
I1124 19:30:30.007925    20 layer_factory.hpp:77] Creating layer pool1
I1124 19:30:30.007948    20 net.cpp:91] Creating Layer pool1
I1124 19:30:30.007963    20 net.cpp:425] pool1 <- conv1
I1124 19:30:30.007997    20 net.cpp:399] pool1 -> pool1
I1124 19:30:30.008059    20 net.cpp:141] Setting up pool1
I1124 19:30:30.008085    20 net.cpp:148] Top shape: 10 96 27 27 (699840)
I1124 19:30:30.008101    20 net.cpp:156] Memory required for data: 32214840
I1124 19:30:30.008116    20 layer_factory.hpp:77] Creating layer norm1
I1124 19:30:30.008152    20 net.cpp:91] Creating Layer norm1
I1124 19:30:30.008168    20 net.cpp:425] norm1 <- pool1
I1124 19:30:30.008189    20 net.cpp:399] norm1 -> norm1
I1124 19:30:30.008231    20 net.cpp:141] Setting up norm1
I1124 19:30:30.008255    20 net.cpp:148] Top shape: 10 96 27 27 (699840)
I1124 19:30:30.008267    20 net.cpp:156] Memory required for data: 35014200
I1124 19:30:30.008285    20 layer_factory.hpp:77] Creating layer conv2
I1124 19:30:30.008304    20 net.cpp:91] Creating Layer conv2
I1124 19:30:30.008319    20 net.cpp:425] conv2 <- norm1
I1124 19:30:30.008342    20 net.cpp:399] conv2 -> conv2
I1124 19:30:30.009037    20 net.cpp:141] Setting up conv2
I1124 19:30:30.009068    20 net.cpp:148] Top shape: 10 256 27 27 (1866240)
I1124 19:30:30.009083    20 net.cpp:156] Memory required for data: 42479160
I1124 19:30:30.009104    20 layer_factory.hpp:77] Creating layer relu2
I1124 19:30:30.009122    20 net.cpp:91] Creating Layer relu2
I1124 19:30:30.009140    20 net.cpp:425] relu2 <- conv2
I1124 19:30:30.009160    20 net.cpp:386] relu2 -> conv2 (in-place)
I1124 19:30:30.009178    20 net.cpp:141] Setting up relu2
I1124 19:30:30.009198    20 net.cpp:148] Top shape: 10 256 27 27 (1866240)
I1124 19:30:30.009212    20 net.cpp:156] Memory required for data: 49944120
I1124 19:30:30.009227    20 layer_factory.hpp:77] Creating layer pool2
I1124 19:30:30.009245    20 net.cpp:91] Creating Layer pool2
I1124 19:30:30.009264    20 net.cpp:425] pool2 <- conv2
I1124 19:30:30.009280    20 net.cpp:399] pool2 -> pool2
I1124 19:30:30.009301    20 net.cpp:141] Setting up pool2
I1124 19:30:30.009322    20 net.cpp:148] Top shape: 10 256 13 13 (432640)
I1124 19:30:30.009337    20 net.cpp:156] Memory required for data: 51674680
I1124 19:30:30.009351    20 layer_factory.hpp:77] Creating layer norm2
I1124 19:30:30.009371    20 net.cpp:91] Creating Layer norm2
I1124 19:30:30.009389    20 net.cpp:425] norm2 <- pool2
I1124 19:30:30.009407    20 net.cpp:399] norm2 -> norm2
I1124 19:30:30.009426    20 net.cpp:141] Setting up norm2
I1124 19:30:30.009446    20 net.cpp:148] Top shape: 10 256 13 13 (432640)
I1124 19:30:30.009461    20 net.cpp:156] Memory required for data: 53405240
I1124 19:30:30.009474    20 layer_factory.hpp:77] Creating layer conv3
I1124 19:30:30.009492    20 net.cpp:91] Creating Layer conv3
I1124 19:30:30.009518    20 net.cpp:425] conv3 <- norm2
I1124 19:30:30.009536    20 net.cpp:399] conv3 -> conv3
I1124 19:30:30.011126    20 net.cpp:141] Setting up conv3
I1124 19:30:30.011190    20 net.cpp:148] Top shape: 10 384 13 13 (648960)
I1124 19:30:30.011206    20 net.cpp:156] Memory required for data: 56001080
I1124 19:30:30.011240    20 layer_factory.hpp:77] Creating layer relu3
I1124 19:30:30.011265    20 net.cpp:91] Creating Layer relu3
I1124 19:30:30.011281    20 net.cpp:425] relu3 <- conv3
I1124 19:30:30.011299    20 net.cpp:386] relu3 -> conv3 (in-place)
I1124 19:30:30.011322    20 net.cpp:141] Setting up relu3
I1124 19:30:30.011340    20 net.cpp:148] Top shape: 10 384 13 13 (648960)
I1124 19:30:30.011356    20 net.cpp:156] Memory required for data: 58596920
I1124 19:30:30.011370    20 layer_factory.hpp:77] Creating layer conv4
I1124 19:30:30.011395    20 net.cpp:91] Creating Layer conv4
I1124 19:30:30.011412    20 net.cpp:425] conv4 <- conv3
I1124 19:30:30.011430    20 net.cpp:399] conv4 -> conv4
I1124 19:30:30.013077    20 net.cpp:141] Setting up conv4
I1124 19:30:30.013123    20 net.cpp:148] Top shape: 10 384 13 13 (648960)
I1124 19:30:30.013139    20 net.cpp:156] Memory required for data: 61192760
I1124 19:30:30.013160    20 layer_factory.hpp:77] Creating layer relu4
I1124 19:30:30.013181    20 net.cpp:91] Creating Layer relu4
I1124 19:30:30.013195    20 net.cpp:425] relu4 <- conv4
I1124 19:30:30.013212    20 net.cpp:386] relu4 -> conv4 (in-place)
I1124 19:30:30.013239    20 net.cpp:141] Setting up relu4
I1124 19:30:30.013257    20 net.cpp:148] Top shape: 10 384 13 13 (648960)
I1124 19:30:30.013270    20 net.cpp:156] Memory required for data: 63788600
I1124 19:30:30.013283    20 layer_factory.hpp:77] Creating layer conv5
I1124 19:30:30.013309    20 net.cpp:91] Creating Layer conv5
I1124 19:30:30.013324    20 net.cpp:425] conv5 <- conv4
I1124 19:30:30.013341    20 net.cpp:399] conv5 -> conv5
I1124 19:30:30.014350    20 net.cpp:141] Setting up conv5
I1124 19:30:30.014384    20 net.cpp:148] Top shape: 10 256 13 13 (432640)
I1124 19:30:30.014399    20 net.cpp:156] Memory required for data: 65519160
I1124 19:30:30.014425    20 layer_factory.hpp:77] Creating layer relu5
I1124 19:30:30.014443    20 net.cpp:91] Creating Layer relu5
I1124 19:30:30.014459    20 net.cpp:425] relu5 <- conv5
I1124 19:30:30.014479    20 net.cpp:386] relu5 -> conv5 (in-place)
I1124 19:30:30.014500    20 net.cpp:141] Setting up relu5
I1124 19:30:30.014515    20 net.cpp:148] Top shape: 10 256 13 13 (432640)
I1124 19:30:30.014533    20 net.cpp:156] Memory required for data: 67249720
I1124 19:30:30.014546    20 layer_factory.hpp:77] Creating layer pool5
I1124 19:30:30.014566    20 net.cpp:91] Creating Layer pool5
I1124 19:30:30.014582    20 net.cpp:425] pool5 <- conv5
I1124 19:30:30.014605    20 net.cpp:399] pool5 -> pool5
I1124 19:30:30.014628    20 net.cpp:141] Setting up pool5
I1124 19:30:30.014645    20 net.cpp:148] Top shape: 10 256 6 6 (92160)
I1124 19:30:30.014662    20 net.cpp:156] Memory required for data: 67618360
I1124 19:30:30.014678    20 layer_factory.hpp:77] Creating layer fc6
I1124 19:30:30.014708    20 net.cpp:91] Creating Layer fc6
I1124 19:30:30.014725    20 net.cpp:425] fc6 <- pool5
I1124 19:30:30.014742    20 net.cpp:399] fc6 -> fc6
I1124 19:30:30.110354    20 net.cpp:141] Setting up fc6
I1124 19:30:30.110445    20 net.cpp:148] Top shape: 10 4096 (40960)
I1124 19:30:30.110457    20 net.cpp:156] Memory required for data: 67782200
I1124 19:30:30.110481    20 layer_factory.hpp:77] Creating layer relu6
I1124 19:30:30.110503    20 net.cpp:91] Creating Layer relu6
I1124 19:30:30.110514    20 net.cpp:425] relu6 <- fc6
I1124 19:30:30.110530    20 net.cpp:386] relu6 -> fc6 (in-place)
I1124 19:30:30.110551    20 net.cpp:141] Setting up relu6
I1124 19:30:30.110564    20 net.cpp:148] Top shape: 10 4096 (40960)
I1124 19:30:30.110572    20 net.cpp:156] Memory required for data: 67946040
I1124 19:30:30.110581    20 layer_factory.hpp:77] Creating layer drop6
I1124 19:30:30.110606    20 net.cpp:91] Creating Layer drop6
I1124 19:30:30.110616    20 net.cpp:425] drop6 <- fc6
I1124 19:30:30.110628    20 net.cpp:386] drop6 -> fc6 (in-place)
I1124 19:30:30.110656    20 net.cpp:141] Setting up drop6
I1124 19:30:30.110667    20 net.cpp:148] Top shape: 10 4096 (40960)
I1124 19:30:30.110677    20 net.cpp:156] Memory required for data: 68109880
I1124 19:30:30.110685    20 layer_factory.hpp:77] Creating layer fc7
I1124 19:30:30.110700    20 net.cpp:91] Creating Layer fc7
I1124 19:30:30.110710    20 net.cpp:425] fc7 <- fc6
I1124 19:30:30.110721    20 net.cpp:399] fc7 -> fc7
I1124 19:30:30.147776    20 net.cpp:141] Setting up fc7
I1124 19:30:30.147840    20 net.cpp:148] Top shape: 10 4096 (40960)
I1124 19:30:30.147850    20 net.cpp:156] Memory required for data: 68273720
I1124 19:30:30.147873    20 layer_factory.hpp:77] Creating layer relu7
I1124 19:30:30.147900    20 net.cpp:91] Creating Layer relu7
I1124 19:30:30.147914    20 net.cpp:425] relu7 <- fc7
I1124 19:30:30.147929    20 net.cpp:386] relu7 -> fc7 (in-place)
I1124 19:30:30.147949    20 net.cpp:141] Setting up relu7
I1124 19:30:30.148030    20 net.cpp:148] Top shape: 10 4096 (40960)
I1124 19:30:30.148039    20 net.cpp:156] Memory required for data: 68437560
I1124 19:30:30.148048    20 layer_factory.hpp:77] Creating layer drop7
I1124 19:30:30.148064    20 net.cpp:91] Creating Layer drop7
I1124 19:30:30.148074    20 net.cpp:425] drop7 <- fc7
I1124 19:30:30.148084    20 net.cpp:386] drop7 -> fc7 (in-place)
I1124 19:30:30.148099    20 net.cpp:141] Setting up drop7
I1124 19:30:30.148113    20 net.cpp:148] Top shape: 10 4096 (40960)
I1124 19:30:30.148126    20 net.cpp:156] Memory required for data: 68601400
I1124 19:30:30.148139    20 layer_factory.hpp:77] Creating layer fc8
I1124 19:30:30.148164    20 net.cpp:91] Creating Layer fc8
I1124 19:30:30.148180    20 net.cpp:425] fc8 <- fc7
I1124 19:30:30.148200    20 net.cpp:399] fc8 -> fc8
I1124 19:30:30.157332    20 net.cpp:141] Setting up fc8
I1124 19:30:30.157402    20 net.cpp:148] Top shape: 10 1000 (10000)
I1124 19:30:30.157412    20 net.cpp:156] Memory required for data: 68641400
I1124 19:30:30.157429    20 layer_factory.hpp:77] Creating layer prob
I1124 19:30:30.157450    20 net.cpp:91] Creating Layer prob
I1124 19:30:30.157461    20 net.cpp:425] prob <- fc8
I1124 19:30:30.157475    20 net.cpp:399] prob -> prob
I1124 19:30:30.157512    20 net.cpp:141] Setting up prob
I1124 19:30:30.157526    20 net.cpp:148] Top shape: 10 1000 (10000)
I1124 19:30:30.157536    20 net.cpp:156] Memory required for data: 68681400
I1124 19:30:30.157546    20 net.cpp:219] prob does not need backward computation.
I1124 19:30:30.157557    20 net.cpp:219] fc8 does not need backward computation.
I1124 19:30:30.157567    20 net.cpp:219] drop7 does not need backward computation.
I1124 19:30:30.157575    20 net.cpp:219] relu7 does not need backward computation.
…
